{"modelTopology":{"class_name":"Sequential","config":{"name":"sequential_4072","layers":[{"class_name":"Dense","config":{"units":16,"activation":"relu","use_bias":true,"kernel_initializer":{"class_name":"VarianceScaling","config":{"scale":1,"mode":"fan_avg","distribution":"normal","seed":null}},"bias_initializer":{"class_name":"Zeros","config":{}},"kernel_regularizer":null,"bias_regularizer":null,"activity_regularizer":null,"kernel_constraint":null,"bias_constraint":null,"name":"dense_Dense8143","trainable":true,"batch_input_shape":[null,4],"dtype":"float32"}},{"class_name":"Dense","config":{"units":2,"activation":"softmax","use_bias":true,"kernel_initializer":{"class_name":"VarianceScaling","config":{"scale":1,"mode":"fan_avg","distribution":"normal","seed":null}},"bias_initializer":{"class_name":"Zeros","config":{}},"kernel_regularizer":null,"bias_regularizer":null,"activity_regularizer":null,"kernel_constraint":null,"bias_constraint":null,"name":"dense_Dense8144","trainable":true}}]},"keras_version":"tfjs-layers 4.8.0","backend":"tensor_flow.js"},"weightsManifest":[{"paths":["./model.weights.bin"],"weights":[{"name":"dense_Dense8143/kernel","shape":[4,16],"dtype":"float32"},{"name":"dense_Dense8143/bias","shape":[16],"dtype":"float32"},{"name":"dense_Dense8144/kernel","shape":[16,2],"dtype":"float32"},{"name":"dense_Dense8144/bias","shape":[2],"dtype":"float32"}]}]}